travelling_salesman_problem/models/model.pth (torch, 390840 bytes, 26 tensors)

block1.0.weight f4 [128, 324]
000000 11 c4 c6 3c 25 dd aa bc 55 3b 3b bd 21 54 04 bd
       0.024263414 -0.020857403 -0.04571088 -0.032306794
000010 ef 9f 2b 3e a3 92 d5 bd 3f 11 75 3d 2c fc 21 bd
       0.16760229 -0.10428359 0.0598309 -0.03954713
000020 b6 b7 76 3c b7 0d 33 bc ff ab e4 bc 8d aa d2 bb
       0.015058449 -0.010928563 -0.027914045 -0.0064290226
000030 bd 42 c3 bd e7 a1 ac bd b1 6a bd 3d 5f f1 b0 bd
       -0.09534214 -0.08429318 0.092488654 -0.08639788
000040 e7 a5 c3 bc 44 74 9c 3d 8c 28 e5 3c 91 86 7d 3c
       -0.02388282 0.076393634 0.027973436 0.015473978
000050 2d b6 a3 bb a6 e1 89 3d d9 0d d0 3d 5a 3d c5 bc
       -0.0049960823 0.06732492 0.10158891 -0.024077106
000060 00 98 84 3c 92 54 66 bd a6 b7 22 3b 1f c5 92 bd
       0.01618576 -0.056232996 0.0024828701 -0.07166504
000070 83 7f 77 bd 6c 96 83 bd b2 fa 90 3d e7 8d 0d bd
       -0.06042434 -0.06425175 0.07079066 -0.034559157
000080 90 ba 88 bc 4e 80 ca 3c 54 f6 87 3c 5d f7 29 3d
       -0.016690522 0.024719384 0.01659695 0.04149567
000090 b0 a3 fc 3c 1f 70 93 bc 7c a8 bb bc d0 f4 db 3d
       0.030839771 -0.0179978 -0.022907488 0.10740054
0000a0 4f a1 4f bd 80 61 20 bc 41 6b bf bb 16 58 bb bd
       -0.050690945 -0.009788871 -0.005841643 -0.091476604
0000b0 8f db 11 3c 7e 60 9a bd 34 1b ab 3c eb cb a1 bc
       0.0089024445 -0.07537936 0.020886995 -0.019750556
0000c0 0f 6c 95 3c d1 ca 4f 3d ee 0e 13 bd 7e 81 82 3d
       0.018240003 0.05073053 -0.03590291 0.06372355
0000d0 4c d6 6e 39 5b 98 02 bd 8e cd 47 3d 52 ec 8a bd
       0.0002277728 -0.03188358 0.048780017 -0.06783356
0000e0 84 ea 4f bd 0a 87 0e bd 6a 98 a3 bc c4 26 e2 3c
       -0.05076076 -0.034796752 -0.019970138 0.027606376
0000f0 6b 95 9f 3d aa 2e b8 bd f9 66 e2 3c 49 ca 20 bd
       0.07792171 -0.089932755 0.027636992 -0.039255414
000100 67 ef 97 bd 7a 4b dd bd c3 da 95 3c ce 73 94 3d
       -0.07418709 -0.10805412 0.01829279 0.072486505
000110 6c b1 f5 b8 e9 af bd 3c 91 47 2f bd 71 09 69 bd
       -0.00011715558 0.02315517 -0.04279286 -0.05689377
000120 79 7b c4 3d 9e 1c 88 3d 69 ec b9 bd 01 19 d3 bd
       0.09593863 0.06646083 -0.09078295 -0.103075035
000130 ff 3a 8b 3d 78 0e 08 3d de 05 04 bd 9b 03 d2 3d
       0.06798362 0.033216923 -0.032232158 0.10254594
000140 48 7f 0c 38 67 b5 05 3d ca 39 cc 3c 3c b9 8d 3c
       3.349714e-05 0.032643702 0.0249299 0.01730024
000150 99 1d e8 3b cf 7f b7 bb cf 12 43 bd 90 41 f6 3d
       0.0070836064 -0.005599953 -0.04762536 0.12024224
000160 f3 75 22 3d c7 32 e2 3d b4 53 9f 3a 1e ca 80 3b
       0.039663266 0.11044841 0.0012155683 0.0039303442
000170 51 ad 43 3d a0 10 19 3d 75 fb 88 bd aa af d6 3b
       0.04777271 0.03736937 -0.066885866 0.0065517025
000180 da b8 64 3d b4 62 d1 bc 34 fd 0b 3d 2c bc 1d ba
       0.05584035 -0.02555976 0.03417702 -0.00060171145
000190 cc 17 76 3d 8d 13 79 3d a3 5c 7a 3c 75 08 e8 bc
       0.06008129 0.06080966 0.015280875 -0.028324345
0001a0 0f 8d 3e bc 78 dc 38 3c 31 09 01 be b7 48 4d bd
       -0.011630311 0.011283033 -0.12601162 -0.050118174
0001b0 ca 82 74 bd d5 ba 5d bd 9b 15 1f bd 28 ce 18 bd
       -0.059695043 -0.054133255 -0.038838964 -0.03730598
0001c0 03 a8 95 3d be 2b 54 bd c2 36 93 bc d3 eb bf 3d
       0.07307436 -0.05179953 -0.017970446 0.09371152
0001d0 2b b0 41 3d 70 19 9d 3d 5b f9 16 bd d6 10 9f 3c
       0.047287147 0.076708674 -0.036858898 0.019417208
0001e0 54 64 be 3c 0c 2b 80 3d 19 10 5b ba 11 28 ed 3c
       0.0232412 0.062582105 -0.0008356586 0.02894977
0001f0 1d be 11 3d 2f e6 ba bd a3 e1 af bd 17 7b b8 bd
       0.035581697 -0.09125935 -0.08587959 -0.090078525
000200 60 54 05 3e 99 d4 11 3d 9d 6e 0c 3d 31 73 1d 3d
       0.13020468 0.03560314 0.034285177 0.038439933
000210 5c 55 b2 38 70 bb 33 bd 88 82 54 bd 5a e3 be 3d
       8.503601e-05 -0.043879926 -0.051882297 0.093207076
000220 86 a7 c8 3d 1a ba 13 bd cc 36 d6 bc ff 14 cc 3d
       0.097975776 -0.036066152 -0.026149176 0.09964942
000230 9b ac 6a bc 51 56 ce bd 2c db 1b bc 47 c4 01 3c
       -0.014323379 -0.10075057 -0.009512704 0.007920331
000240 1e 60 8f 3d a1 60 5e 3c ac ed ea 3a 88 9d 8e bd
       0.07000755 0.013572843 0.0017923615 -0.069636405
000250 15 a6 14 bd 9c 15 98 3c 2f 12 89 3d f0 9d e7 bc
       -0.0362912 0.018564992 0.06692921 -0.028273553
000260 53 c3 4d 3d e0 19 cd ba b7 90 e1 3d d6 92 fc 3d
       0.050235104 -0.001564797 0.1101393 0.12332694
000270 9f 09 93 bd 12 a8 96 3d 81 ff 15 3c 63 7d 32 bd
       -0.071795695 0.073562756 0.009155155 -0.04357661
000280 0c 8c 3a 3d 0c c9 c9 3b 0e 20 82 3d cf dd 09 3e
       0.045543715 0.006158 0.0635377 0.1346352
000290 5b f0 44 bd 95 d7 94 bd 2f cd dd bd 01 7e a8 bc
       -0.048080783 -0.072676815 -0.10830151 -0.020567896
0002a0 0c 7d 64 3d 54 77 b2 3d f6 15 91 3b eb 98 2f bd
       0.055783316 0.08714166 0.004427667 -0.042870443
0002b0 ca 5b b1 3a 8e 08 e7 3c e3 91 84 bc 96 1a 85 bd
       0.0013531384 0.028202321 -0.016182845 -0.064992115
0002c0 a1 c0 8f bd b1 5e 07 3b ef e4 c2 3d 8e 04 c3 bd
       -0.07019163 0.0020655806 0.09516322 -0.09522353
0002d0 00 f1 2b 3c 98 aa 48 3d 6d 0c 40 bd 13 54 88 bd
       0.010494471 0.048990816 -0.04688685 -0.06656661
0002e0 f2 c0 e6 bc e2 e5 5d 3d b6 27 1b 3d a1 cc 95 3c
       -0.028168175 0.05417431 0.03787967 0.018286051
0002f0 16 56 c1 bc 5a 7b 1d ba af 73 13 bd 8a f1 03 3d
       -0.02360062 -0.00060074555 -0.035998996 0.03221277
000300 6e 4d 8e 3c 44 00 23 3e 85 72 c8 39 ab 7d 08 3a
       0.017370906 0.1591807 0.00038232296 0.0005206714
000310 35 87 04 bc 6b 26 6d 3d 62 95 72 3d 06 b2 85 3b
       -0.0080888765 0.057897966 0.059224494 0.00408006
000320 a8 d8 99 3d 55 67 a6 3c ed 12 00 be d0 d1 2c be
       0.07512027 0.020312944 -0.1250722 -0.16876912
000330 91 5a 45 bd f3 85 bd bd 13 2f 16 3d b4 b0 91 bd
       -0.048182074 -0.092540644 0.036665987 -0.071137816
000340 19 77 21 3d 22 8f 2b 3c 98 85 61 3c 45 02 3a 3c
       0.03942022 0.010471137 0.013764761 0.01135308
000350 92 5e 73 bd 45 8b 6b bd e4 7b 25 bd c3 d0 c5 bc
       -0.05941636 -0.057505865 -0.040401354 -0.024147397
000360 0b 77 a0 3d 05 49 ce bc 39 19 11 3a e8 d5 49 bd
       0.07835206 -0.025181303 0.00055350695 -0.049276263
000370 58 90 e9 3b 2b 06 42 bb f7 5a 2f 3d d9 c4 8e 3d
       0.007127803 -0.0029605727 0.04281136 0.069711395
000380 d3 5a 74 bd 58 dc 0b 3c 61 21 a7 bc fc e1 bb 3d
       -0.05965693 0.008536421 -0.020401658 0.091739625
000390 0f f4 a2 bc 3a 14 cd ba 72 dd 7f bd f0 67 e0 3c
       -0.019891767 -0.0015646287 -0.062467046 0.027393311
0003a0 83 39 14 3d 39 e8 71 bd dd ee 5b bc 47 8b ec bd
       0.03618766 -0.059059355 -0.013423649 -0.115500025
0003b0 2b cb a7 bc c2 75 9c bd 30 aa 01 3d da 43 d8 3d
       -0.02048262 -0.07639648 0.031656444 0.10559817
0003c0 8a 9c 69 3c bb 0a df 3d c7 4b 9c 3c 51 5c 14 3d
       0.014258513 0.108907185 0.019079102 0.036220852
0003d0 50 e8 10 3d 36 49 87 3c 6a e6 a5 bd f1 10 e6 ba
       0.0353778 0.016514402 -0.081005886 -0.0017552656
0003e0 8b 4e 4d 3d a6 39 11 3e 88 ee 8b bd 6e 46 a3 bd
       0.050123733 0.14182147 -0.068326056 -0.07972418
0003f0 f9 3d bb bc 4b 56 21 bd d7 cb 35 be 6e 7f 8b bd
       -0.0228567 -0.039388936 -0.1775354 -0.06811415

block1.0.bias f4 [128]
000000 7f 62 22 bc 26 6c cc 3c a9 46 80 3c 2e 22 c8 3d
       -0.009911179 0.024953913 0.015658693 0.09772144
000010 da e8 7f 3d a5 48 02 bd 28 ed 87 3c 03 84 f1 3c
       0.062477924 -0.03180756 0.016592577 0.029481893
000020 0c ea 65 bc 0f d0 6a bd e2 38 6e bb f7 f1 fc 3c
       -0.014032852 -0.057327326 -0.0036349823 0.030877097
000030 6f 83 aa 3d 15 a8 bb bc f4 19 3b bd e2 51 90 bd
       0.0832585 -0.022907296 -0.045679048 -0.07046868
000040 31 34 43 3c 91 02 00 3d 11 2a 67 bd 41 84 55 bb
       0.011914299 0.031252448 -0.056436602 -0.003258005
000050 a4 e4 2f bc 8b 1f 40 3c a3 4b 67 bd fa 20 d2 3c
       -0.0107356645 0.01172627 -0.056468617 0.02565049
000060 98 f2 16 bd 00 ef 2a 3d 31 37 87 3c 64 ad 2d bd
       -0.03685245 0.041731834 0.01650581 -0.042401686
000070 9b 88 34 3d 77 49 5e 3d 44 4b 51 bd cf 29 3f 3b
       0.04407559 0.05426928 -0.05109717 0.0029169207
000080 27 01 fa bc e8 0f 3b bd 21 44 af bc 45 f9 81 3c
       -0.030518128 -0.045669466 -0.021394791 0.015865931
000090 c2 3f 24 3d f5 1e 48 bd 56 84 52 bb 88 80 e3 bc
       0.040099867 -0.048857648 -0.0032122335 -0.02777125
0000a0 95 d8 8c bd 7c a4 0a 3d 75 52 02 be 16 7b 6a 3b
       -0.06877247 0.03384827 -0.12726767 0.0035778931
0000b0 28 4e 3e 3c f4 c5 e9 39 bd 91 5b bd 50 fa 20 b9
       0.011615314 0.0004458871 -0.053605784 -0.00015352038
0000c0 7d 7f 23 bd 0a 60 75 bd 56 d4 88 3b 48 08 6f 3d
       -0.039916504 -0.059906043 0.004175703 0.058357507
0000d0 3a c9 82 3c 36 09 06 bb a8 31 13 bd cb 8a bb bb
       0.015965093 -0.0020452267 -0.035936028 -0.0057233325
0000e0 9a 1c 47 bc 99 e4 df 3b 26 4b 27 bd 87 9b 04 bd
       -0.012152815 0.006832671 -0.04084315 -0.032374885
0000f0 ff 26 e7 bc 70 41 92 3c 3c 2c c1 3c 85 64 d3 3d
       -0.028216837 0.017853469 0.023580663 0.10321907
000100 24 18 22 3d d4 84 b1 bc ec 58 12 bb fc 37 0b bd
       0.039573804 -0.021669783 -0.0022330834 -0.033988938
000110 8f 8f 83 bd 53 28 0d 3c ca dd 28 3d 75 a1 29 bd
       -0.06423866 0.008615571 0.04122714 -0.041413743
000120 83 a2 56 3d 66 7e cb bc c5 2e 88 bc c3 82 e3 3b
       0.052401077 -0.024840545 -0.016623864 0.0069430782
000130 d4 4c 46 3d f2 bd 1e bd c7 23 91 3c 2b a8 0f bd
       0.048413113 -0.038755365 0.017717255 -0.035072487
000140 12 fe 1b b9 21 6c 7a 3d ea 5f 72 3d 89 33 e7 3c
       -0.000148766 0.061138276 0.059173502 0.028222816
000150 ff 59 9f bb 08 72 46 bd 8a 47 0a bd 85 0f c0 bc
       -0.0048630233 -0.048448592 -0.03375963 -0.0234449
000160 36 52 b7 3b d5 02 39 bc 29 ec 7b 3b 79 d2 1b 3c
       0.005594517 -0.011292179 0.0038440323 0.00951063
000170 76 22 9a bd a7 af 4c 3d 44 75 74 3d f0 b8 8e 3d
       -0.07526104 0.049972203 0.059682146 0.06968868
000180 86 66 4a 3d af f7 51 bd 88 13 74 bd 55 5e 08 bc
       0.04941418 -0.0512616 -0.05958894 -0.008323272
000190 78 29 b7 bc f0 db 1c bd c7 98 ab 3d a4 e3 4c 3c
       -0.022358641 -0.038295686 0.08378749 0.012505446
0001a0 29 d5 58 3c 1f ab e0 3c d8 42 8b bd 26 43 8b 3c
       0.013234415 0.027425347 -0.06799859 0.016999792
0001b0 ac 77 2b 3d a4 00 f4 ba 97 b5 80 3d 03 b6 cf 3b
       0.041862175 -0.0018615914 0.062846355 0.006338836
0001c0 31 14 08 3d 74 ec d5 3b 72 96 b9 3d d4 81 86 bd
       0.03322238 0.0065284315 0.09061898 -0.065677315
0001d0 8a 29 07 bd ee bf bc bc 35 49 97 3c ea 78 39 3b
       -0.0329986 -0.023040738 0.018467525 0.002830083
0001e0 55 fc 7f 3d 65 c4 7f bb 11 c2 46 3c c3 a1 3e 3d
       0.062496502 -0.0039026972 0.01213123 0.046540987
0001f0 13 ee 41 bc 04 30 70 bc 4e 37 51 3d cb b8 0f bd
       -0.0118365465 -0.014659885 0.051078133 -0.03508834

block1.1.weight f4 [128]
000000 b9 d1 7c 3f 9f 9f 7c 3f 16 13 83 3f d5 62 86 3f
       0.9875751 0.9868106 1.02402 1.0498911
000010 64 b6 84 3f a1 d0 82 3f 76 8c 84 3f 5f 24 83 3f
       1.0368161 1.0219918 1.0355365 1.0245475
000020 e1 d0 7f 3f a8 f9 81 3f 66 d9 84 3f 60 7f 7e 3f
       0.999281 1.0154314 1.0378845 0.9941311
000030 a8 8b 77 3f 5b fa 80 3f 55 3d 89 3f 81 e4 7d 3f
       0.96697474 1.0076402 1.0721842 0.99176794
000040 e5 02 7e 3f 43 19 80 3f 6e 43 81 3f 3c d5 84 3f
       0.99223167 1.0007709 1.0098703 1.0377574
000050 31 01 79 3f 7c 27 83 3f 06 f6 7e 3f 06 61 85 3f
       0.9726744 1.0246425 0.9959415 1.0420234
000060 60 00 81 3f 5e ce 72 3f 6f 15 84 3f 7d 5c 80 3f
       1.007824 0.9484614 1.0319041 1.0028225
000070 0d 04 81 3f 58 83 7f 3f 79 41 84 3f 2b e5 82 3f
       1.0079361 0.9980979 1.0332481 1.0226187
000080 92 50 87 3f 22 88 7f 3f 0d bf 82 3f 96 6f 83 3f
       1.0571463 0.998171 1.0214554 1.0268428
000090 28 1d 80 3f 76 d8 82 3f aa 1b 81 3f ff 4e 73 3f
       1.0008898 1.0222309 1.0086567 0.95042413
0000a0 32 f8 82 3f 2d 37 86 3f 73 03 81 3f d0 6c 77 3f
       1.0231993 1.0485588 1.0079178 0.9665041
0000b0 23 be 81 3f c6 7c 83 3f ab 98 78 3f d0 b7 85 3f
       1.013615 1.0272453 0.9710795 1.044672
0000c0 64 d3 82 3f 5e 8c 83 3f 3b f8 75 3f e0 74 7d 3f
       1.0220761 1.0277212 0.96081895 0.9900646
0000d0 18 d6 78 3f bb 06 7c 3f a0 f4 7f 3f 96 e4 77 3f
       0.9720168 0.9844777 0.99982643 0.9683317
0000e0 d3 b9 7f 3f 9d 67 84 3f 67 15 84 3f 97 08 73 3f
       0.9989292 1.034412 1.0319031 0.9493498
0000f0 1f 71 7c 3f be b4 7d 3f a6 14 80 3f cc 8f 7b 3f
       0.9861011 0.99103916 1.0006301 0.9826629
000100 af bd 7b 3f 6c d4 7b 3f 4f 47 80 3f ed e7 7c 3f
       0.9833631 0.98371005 1.0021762 0.9879139
000110 a5 90 7c 3f c8 36 82 3f 31 52 81 3f 33 38 80 3f
       0.9865821 1.0172968 1.0103208 1.0017151
000120 0b a7 81 3f 74 6a 77 3f eb da 7b 3f 9d 9a 80 3f
       1.0129102 0.9664681 0.9838092 1.0047184
000130 79 ec 81 3f ce 3f 84 3f 49 02 82 3f 13 71 81 3f
       1.0150291 1.0331972 1.0156947 1.0112633
000140 f8 f4 7b 3f 27 25 7e 3f ea 7d 7a 3f 38 4d 7e 3f
       0.9842067 0.9927544 0.9784838 0.99336576
000150 8b 50 82 3f 77 ff 76 3f a3 ee 7e 3f 2d fb 76 3f
       1.018083 0.9648356 0.9958288 0.96477014
000160 59 ec 8a 3f 69 c4 82 3f 5d 6b 7c 3f 04 a4 81 3f
       1.0853378 1.021619 0.98601323 1.0128179
000170 79 fb 82 3f 55 cc 81 3f 55 6f 7f 3f 4c f6 7b 3f
       1.0232993 1.0140482 0.99779254 0.98422694
000180 80 4d 7f 3f fe df 7b 3f 76 7f 75 3f ee e6 7c 3f
       0.9972763 0.9838866 0.95897615 0.9878987
000190 75 15 77 3f cb a0 81 3f f6 14 7b 3f d8 7b 82 3f
       0.96517116 1.0127195 0.9807886 1.0194044
0001a0 50 a5 81 3f 51 cf 7e 3f a1 32 7f 3f d5 39 82 3f
       1.0128574 0.9953509 0.9968663 1.0173899
0001b0 8b 3a 80 3f 0b f8 80 3f 09 f6 84 3f 62 ac 84 3f
       1.0017866 1.0075697 1.0387584 1.0365107
0001c0 11 2f 85 3f dc 76 7c 3f cd d5 82 3f 57 d3 7d 3f
       1.0404989 0.98618865 1.0221497 0.99150604
0001d0 02 cc 80 3f c5 6e 84 3f 87 2f 7c 3f 43 80 7f 3f
       1.0062258 1.0346304 0.9851002 0.99805087
0001e0 2b 45 7b 3f 9b 13 7e 3f 1e d8 7f 3f 09 17 7e 3f
       0.98152417 0.99248666 0.99939144 0.992539
0001f0 4a 35 82 3f 1c 2b 7a 3f 56 0b 7c 3f 27 ef 79 3f
       1.0172513 0.9772203 0.984548 0.9763054

block1.1.bias f4 [128]
000000 47 c3 a8 bd ca cc 22 bc c7 7f 90 bc 21 00 25 bc
       -0.08240371 -0.009936521 -0.017639054 -0.0100708315
000010 a0 89 d6 bd 43 4b 00 be 89 31 1f bc aa 0d 84 bd
       -0.10475469 -0.1252871 -0.0097164 -0.06447919
000020 5a 5a 25 bd 26 33 1a bd 5f 80 58 bd 1c 90 ee bd
       -0.04036937 -0.037646435 -0.0528568 -0.116485804
000030 d0 93 30 3c af ea 69 bd f8 ce 41 3c a7 ec 15 3c
       0.010777429 -0.057108577 0.01182913 0.009150661
000040 57 1c b9 bc 92 2a 3a bd ed 40 1f bd 3d d6 a9 3c
       -0.022596521 -0.045450754 -0.038880277 0.02073204
000050 4e e6 82 bc f6 eb f2 bc 92 a0 95 bd 9e ea dc bc
       -0.015978958 -0.02965353 -0.07306017 -0.026967343
000060 7f 44 d6 bd e0 b2 4e bd 5c 9a 12 bd 95 32 62 bc
       -0.10462283 -0.050463557 -0.03579174 -0.013806005
000070 b0 2a 98 bd 37 c6 bb bd 58 f9 30 3a 21 cf eb bc
       -0.07430017 -0.09168666 0.00067510223 -0.02878529
000080 e5 4d 80 3c da 0f a5 bd dc 60 e1 bd cc 42 3d bd
       0.015662143 -0.08059664 -0.110048026 -0.04620628
000090 1d c3 4e bd 00 eb 2e 3d 06 5f a9 bd 0f f2 ec bc
       -0.050479043 0.042704582 -0.082700774 -0.028924016
0000a0 2d e7 84 bd 42 a5 84 bc bf b3 00 bd f4 ee 92 bd
       -0.06489406 -0.016192082 -0.03142142 -0.07174483
0000b0 b4 f2 96 bc 5a b2 bf bc 88 27 13 bd 3f 5e a0 3c
       -0.018426277 -0.023400474 -0.03592637 0.01957619
0000c0 40 3b 5c bd 34 4c e2 bc b8 46 12 bd 90 d0 9e bd
       -0.053767443 -0.027624227 -0.035711974 -0.07754624
0000d0 19 9b 26 bd 7d ce 40 bd 33 4e 00 3c 5a 05 b2 3c
       -0.040675256 -0.047071923 0.007831144 0.021731067
0000e0 1b e9 6a bd 00 3e 85 bc 14 c8 6d bd bd ca 9e bd
       -0.057351213 -0.016264915 -0.058052137 -0.07753513
0000f0 42 50 21 bd 01 50 b1 3c 22 e9 bb bc cd 4b 01 be
       -0.03938318 0.021644594 -0.022938315 -0.12626572
000100 c2 9e b4 bb e4 28 66 bc 99 8c c4 bc 3f cf 5f bd
       -0.0055120895 -0.014047835 -0.023992823 -0.054641005
000110 b1 c5 9c bd 50 bd af bd 43 33 5d bd ba d1 15 3d
       -0.07654894 -0.0858103 -0.054003965 0.036576964
000120 f0 3e 23 bc bb 3f 2a bc 22 55 87 bd 90 fd 81 bd
       -0.009963736 -0.010391171 -0.06608035 -0.06347191
000130 68 45 0e bd 7e a0 71 3c 12 ea 8f bd e2 7f f5 3c
       -0.03473416 0.014747737 -0.07027067 0.029968206
000140 71 e7 6e bd e8 03 f2 bc 1b 92 8d 3c 89 54 8e bd
       -0.05832619 -0.029542878 0.017281583 -0.069497176
000150 ec 02 0a bd 31 13 87 bd 32 59 7e bc de 4b c0 bd
       -0.033694193 -0.06595457 -0.0155241955 -0.093894705
000160 4d fc bd 3b c0 bc f3 ba 8e df 82 bd 92 ef b9 3c
       0.005797899 -0.0018595681 -0.06390296 0.022697244
000170 33 d9 92 bc e3 70 15 be 69 61 c4 3b 63 23 14 bd
       -0.017925834 -0.14593844 0.0059930575 -0.03616656
000180 77 18 c5 bc f4 27 14 be de 0d 47 bd b1 9c 0d be
       -0.024059517 -0.14468366 -0.04859721 -0.13829304
000190 4f 7f 13 bd 76 15 4c bd f0 40 1f bd 40 2e 0d bb
       -0.036010083 -0.049825154 -0.03888029 -0.002154246
0001a0 f1 f1 79 3c a9 5b f0 bb 60 00 2f bd 68 89 94 bd
       0.015255437 -0.0073351455 -0.042724967 -0.07252771
0001b0 00 83 d7 bd 79 81 42 bd a1 d7 bb 3c 8d 1c 96 bd
       -0.10523033 -0.047486756 0.022929968 -0.073296644
0001c0 11 2f 9b bd c2 0c 11 bc a9 86 0e bd ad 05 cf bc
       -0.075773366 -0.008853139 -0.03479639 -0.025271261
0001d0 8d c9 9e bd fc 2e 22 3d 81 69 66 bd 24 47 0f bd
       -0.077532865 0.03959559 -0.05625296 -0.034979954
0001e0 08 fb 86 bd 50 b1 25 3c 63 49 f5 bd 10 32 d8 3d
       -0.06590849 0.010113075 -0.11976888 0.10556424
0001f0 23 9e 45 3d 5f ea 80 bd b5 36 f6 bd 8d f7 e7 bc
       0.048246514 -0.06294703 -0.12022153 -0.028316284

block1.1.running_mean f4 [128]
000000 30 eb 05 3f 83 d5 10 bf 3d c2 65 3e 5f 2c b1 bf
       0.5231199 -0.56575793 0.22437377 -1.3841666
000010 dc 20 42 bd 73 27 3d 3f f9 d4 ee bd cc c2 2c bf
       -0.04739462 0.7388832 -0.11661715 -0.67484736
000020 03 96 c9 3e f0 82 2e 3e 6a 0d 85 3f fa ba 6b bf
       0.39372262 0.17042136 1.0394719 -0.9208218
000030 a4 d6 5a be fe a7 ff be fc 66 74 bf f4 17 9e 3e
       -0.21370941 -0.49932855 -0.9546964 0.3087765
000040 80 09 e2 be 57 c4 f1 3e 5e 1a 67 be 62 af 03 bf
       -0.44147873 0.47220108 -0.22568652 -0.5143949
000050 dd b8 e3 be f4 68 72 3f 1c d7 56 3e 02 05 55 3e
       -0.44476977 0.94691396 0.20980495 0.20802692
000060 62 b6 2e bf 14 26 a4 be 9d a4 dc be fe 65 50 3d
       -0.68247044 -0.320603 -0.4309434 0.050878517
000070 ab e3 ca 3f f6 47 2f 3f f6 a5 07 bf e3 e1 cd 3e
       1.5850729 0.6846918 -0.5298761 0.402114
000080 c7 bd 83 bf 3b 46 b9 be 34 fe 07 3f c3 f5 40 3f
       -1.029229 -0.36186394 0.5312226 0.75375
000090 62 6f 7c be 7a 89 2d be b1 2e ab 3d 4c 59 01 bf
       -0.24651864 -0.16946974 0.08358515 -0.5052688
0000a0 42 87 d3 3e 69 58 38 bf 33 bc d7 be ef a8 48 3f
       0.4131413 -0.72009903 -0.42135772 0.7838277
0000b0 58 74 23 3e 3d b2 0b 3f 00 37 af 3c 68 db 0d bf
       0.1596235 0.54568845 0.02138853 -0.5541291
0000c0 94 aa 18 bf fd 5f 98 bf 90 d1 e2 3d 4b 8e 17 bf
       -0.5963528 -1.1904293 0.11075127 -0.59201497
0000d0 cd 49 7a 3d 62 51 49 be 70 eb 31 bc be 57 14 be
       0.06110554 -0.19659951 -0.010859355 -0.14486596
0000e0 30 75 78 3d 57 ff 41 3e bc ed e8 3d 11 d0 d1 3e
       0.060658634 0.1894506 0.11373469 0.40979055
0000f0 01 dd 03 bf 7f dc 1e 3f ea e6 d4 3e 12 50 a5 3f
       -0.515091 0.620552 0.41582423 1.291506
000100 8b 42 fb 3e f2 3f 85 bc 03 78 a9 3e 76 49 d8 bd
       0.49074206 -0.016265843 0.33099374 -0.105608866
000110 5b 8a f0 3b b5 84 34 bf d6 a2 e1 3e 6b 04 3e 3e
       0.007340712 -0.70514995 0.44069546 0.18556373
000120 40 c2 8e 3f c6 2b 09 bf e0 6e 53 3e b7 9a 6b 3f
       1.115303 -0.5358242 0.20647764 0.9203295
000130 ca 91 11 be dd 6c 18 3f 08 9e 0f bf d4 57 48 bf
       -0.1421577 0.5954111 -0.5610051 -0.78259015
000140 6d bf 84 bf 4c ea 99 3e 0c 26 99 be bb 76 d6 be
       -1.0370919 0.30061567 -0.2991184 -0.4188746
000150 a2 dc cd 3e 80 f6 19 3f 0a 67 82 be 0d 57 07 3e
       0.40207392 0.60141754 -0.25469238 0.13216801
000160 dc a6 df be c0 41 8e 3d 08 16 5d 3d d7 fc 54 3d
       -0.4368199 0.069461346 0.05397609 0.05199894
000170 83 28 75 3e b4 66 f5 be 8f 63 9e be a8 b3 13 bd
       0.23941235 -0.4792992 -0.30935332 -0.036060005
000180 69 cb d6 3e ee 3a 94 be 77 ef 80 3e 0a ac f0 be
       0.41952065 -0.2895121 0.25182697 -0.47006255
000190 81 92 9d 3f bf fa 24 3f e2 cd c9 3e e7 b6 a8 bd
       1.2310334 0.6444511 0.3941489 -0.08238011
0001a0 99 66 be be 9f 47 9b be 56 ba 27 bf 17 31 81 3f
       -0.3718765 -0.3032808 -0.655187 1.0093106
0001b0 95 bf d2 be 21 83 8b be 85 dc ab 3d 04 d4 a4 3e
       -0.4116179 -0.2724848 0.0839167 0.32193005
0001c0 5d a1 cd bd 82 eb 13 3f 59 7b b8 be 88 50 da bc
       -0.10040543 0.5778123 -0.36031607 -0.026649728
0001d0 57 b7 57 3e a5 d2 8a be da b6 3a 3d 50 c1 42 bf
       0.21066032 -0.27113834 0.045584537 -0.7607622
0001e0 fc 90 e8 3e df fb cf bc 28 95 28 bf c4 49 b0 bd
       0.45423114 -0.025388656 -0.65852594 -0.0860782
0001f0 20 a9 be 3e 78 70 24 3f c7 76 02 be 7f cc cd 3e
       0.37238407 0.64234114 -0.12740622 0.4019508

block1.1.running_var f4 [128]
000000 21 64 25 3e 08 11 63 3e 80 d7 38 3e a7 21 6d 3e
       0.16151477 0.22174466 0.18050957 0.23157369
000010 13 09 52 3e 21 f9 32 3e 92 93 37 3e 49 4d 52 3e
       0.20511274 0.17477848 0.17927387 0.20537294
000020 da 58 65 3e 63 3a 4a 3e 70 98 58 3e 1a 05 4f 3e
       0.22397175 0.19748835 0.211519 0.2021679
000030 d7 1e 41 3e ad 5f 3e 3e 55 06 4d 3e 13 3c 62 3e
       0.1885942 0.18591185 0.20021947 0.22093229
000040 4f 53 48 3e 72 51 43 3e 19 2c 52 3e c2 1a 4e 3e
       0.1956303 0.19074038 0.20524634 0.20127395
000050 6d 4b 55 3e c4 46 2b 3e 68 f9 53 3e 9e 19 46 3e
       0.20829554 0.16726214 0.2070061 0.1934571
000060 c9 13 4a 3e 4b 44 6d 3e 97 49 50 3e 12 90 44 3e
       0.1973411 0.23170583 0.20340572 0.19195583
000070 19 86 60 3e 96 ba 35 3e 3a af 50 3e 9b b1 56 3e
       0.21926154 0.17746958 0.20379344 0.20966189
000080 4d ce 49 3e 61 b9 5a 3e b0 f4 4c 3e eb da 39 3e
       0.19707604 0.21359779 0.20015216 0.18149917
000090 7b 95 5b 3e 7d 62 42 3e e8 c7 4d 3e 25 82 5e 3e
       0.21443741 0.18982883 0.2009579 0.21729334
0000a0 6e de 64 3e 08 51 3e 3e 24 b1 2a 3e 47 ce 5d 3e
       0.22350475 0.18585598 0.16669136 0.2166072
0000b0 33 06 51 3e d7 7e 3f 3e b5 d6 4a 3e 6e f1 51 3e
       0.20412521 0.1870073 0.19808467 0.20502254
0000c0 a8 43 56 3e e9 0b 53 3e be fa 61 3e 3a 2c 48 3e
       0.20924246 0.20610012 0.22068307 0.19548121
0000d0 2b c3 42 3e 66 0a 3e 3e 36 b9 4e 3e 4c 11 56 3e
       0.19019763 0.18558654 0.2018784 0.20905036
0000e0 37 d3 40 3e 39 a0 5a 3e 2e 5a 6a 3e a3 ab 43 3e
       0.18830572 0.21350183 0.22885963 0.19108443
0000f0 ce 01 47 3e ec 17 48 3e d1 b0 47 3e f3 b1 4b 3e
       0.19434282 0.19540375 0.19501044 0.19892101
000100 24 5c 35 3e ce af 43 3e 74 ec 51 3e 31 ee 52 3e
       0.1771093 0.19110033 0.20500356 0.20598675
000110 90 58 71 3e 37 80 31 3e 79 9a 48 3e f8 83 35 3e
       0.2356894 0.17334066 0.19590177 0.17726123
000120 fd 74 4e 3e bd 6b 34 3e 8f d7 5a 3e 3c 29 4e 3e
       0.20161815 0.17619224 0.21371292 0.20132917
000130 8b 79 49 3e 3a 56 31 3e 45 3b 62 3e 8a a9 7b 3e
       0.19675271 0.17318049 0.22092922 0.24576393
000140 96 d5 51 3e 41 2d 54 3e 79 ba 74 3e 78 77 4f 3e
       0.20491633 0.20720388 0.23899259 0.20260417
000150 4c d0 3a 3e 62 71 5a 3e 75 4b 3b 3e 61 85 32 3e
       0.18243521 0.21332315 0.18290503 0.17433693
000160 a7 36 46 3e 0e 30 40 3e 63 14 42 3e 23 ae 4d 3e
       0.19356786 0.18768331 0.1895309 0.20085959
000170 f0 ee 4f 3e b6 a8 5f 3e e7 62 6b 3e cd 7a 5c 3e
       0.20305991 0.21841702 0.22986947 0.2153122
000180 06 b5 47 3e 84 53 58 3e c7 22 3e 3e 2d e7 2e 3e
       0.19502649 0.21125609 0.18567954 0.17080374
000190 49 8b 3f 3e 54 46 3b 3e 96 de 4e 3e a0 21 3b 3e
       0.18705477 0.18288547 0.20202097 0.18274546
0001a0 90 3e 3c 3e 43 ea 53 3e 72 fd 4f 3e 5f 14 3a 3e
       0.1838324 0.20694833 0.20311525 0.18171833
0001b0 80 14 4f 3e 6f 0f 53 3e a9 6e 3f 3e a4 09 63 3e
       0.20222664 0.20611356 0.18694557 0.22171646
0001c0 0f 20 4d 3e 7b b3 54 3e 9f 85 4c 3e f2 58 66 3e
       0.2003176 0.20771591 0.19972847 0.22494867
0001d0 e4 48 4b 3e fe 2a 5a 3e 44 60 53 3e 59 80 55 3e
       0.19852024 0.21305463 0.20642191 0.20849742
0001e0 21 57 4c 3e 4b 39 2f 3e 40 ac 57 3e c9 13 54 3e
       0.19955112 0.171117 0.21061802 0.20710672
0001f0 80 69 42 3e a9 d3 5d 3e 9e 5a 3e 3e b0 6c 51 3e
       0.18985558 0.21662773 0.18589255 0.20451617

block2.0.weight f4 [128, 128]
000000 0b 3d c2 bd be 89 94 3d 91 aa a3 3d 82 d3 98 bd
       -0.09484299 0.07252835 0.07991517 -0.07462217
000010 32 0d 6f bb 34 a8 02 be d9 01 3b bd e8 60 3a bc
       -0.003647637 -0.12759477 -0.04565606 -0.011375643
000020 08 ef 9e bd 89 f1 0b 3d 58 77 40 bd ff d5 53 3d
       -0.07760435 0.034165893 -0.046988815 0.051717754
000030 2c 87 ea b9 59 34 f5 bd 81 06 ed bc 08 09 44 bd
       -0.0004473267 -0.11972875 -0.028933765 -0.047860175
000040 0c 5a c5 bd ea 9b 8b 3d fe 05 13 be b8 2e c2 3d
       -0.09636316 0.068168476 -0.14357755 0.09481567
000050 91 54 b0 bc 97 87 ba bc 89 38 a8 bd c5 4c bc bd
       -0.0215247 -0.022769732 -0.08213908 -0.0919433
000060 49 03 a1 bd 61 f0 ac 3d 1b f8 2f bd 7c 50 fb 3a
       -0.07861955 0.08444286 -0.04296122 0.0019173766
000070 6f c3 b5 bc 5b e6 ad bd ca f2 1f bb 81 7d 29 bd
       -0.022187917 -0.084912024 -0.0024406188 -0.041379455
000080 5c 6e 8f bb 9d 9f 81 bc 44 cb b3 3d cf ed 90 3c
       -0.0043771695 -0.01582318 0.08779004 0.017691521
000090 65 a8 df bd ef 5e a6 3d 0f 99 93 bd 4a 76 9c bd
       -0.109207906 0.08123576 -0.07206928 -0.07639749
0000a0 dc e7 d8 bb dc 9e 08 3e 0a 53 22 3e e3 a3 21 3d
       -0.0066194367 0.1334185 0.1585199 0.039462935
0000b0 52 df 61 bd 38 e9 02 3c 51 d3 04 3d f0 83 04 be
       -0.055144615 0.007990174 0.03242809 -0.12940955
0000c0 8a 3b 25 bd 33 a0 29 3d 1a e7 0c bd 3d ec 47 be
       -0.040339984 0.041412544 -0.034400083 -0.19523712
0000d0 5f b1 ee 3d ce c5 fc 3d 5d b8 bc 3d a7 a7 e8 3d
       0.116549246 0.12342416 0.09214852 0.11360102
0000e0 7e 53 1b 3d 22 42 ee 3b 8c e6 b5 3d 10 22 cf bd
       0.03792142 0.0072710672 0.08881864 -0.10113919
0000f0 e2 e1 2d bd aa fd 84 3d 1c 77 cf bd 9f 75 57 bd
       -0.042451747 0.06493695 -0.1013014 -0.052602407
000100 e2 9e b1 3d e5 95 40 be 68 a3 f2 3c 74 28 16 bd
       0.086728826 -0.1880718 0.029618934 -0.036659673
000110 02 86 e3 3b 7e 5f f2 3c e7 9c 60 bd a8 74 09 be
       0.006943465 0.02958655 -0.054837134 -0.13423407
000120 37 7b 4f bc dd 89 28 bd 30 ba de 3c 2f 22 c1 3c
       -0.012663654 -0.0411471 0.02718839 0.02357587
000130 b0 a2 70 3d 7a d0 d1 3d 62 69 d8 3d ac 55 9a 3d
       0.0587489 0.10244842 0.10566975 0.07535872
000140 98 36 40 3d af 97 92 bd 38 73 dd bc 1d 31 dd 3b
       0.046927065 -0.071578376 -0.02703248 0.0067502395
000150 e1 97 91 bd 39 ff 9c bd 40 df 9b 3c 7f 8d 5d 3d
       -0.07109047 -0.07665867 0.019027352 0.05409002
000160 36 8e 8b bd 9b a2 34 be bf 96 0f 3e b4 f4 cf 3d
       -0.06814234 -0.17640154 0.14022349 0.10154095
000170 9e a9 ea bd 49 15 6d 3d f1 91 e1 bc 3a 1c 2c bc
       -0.11458133 0.057881627 -0.02753541 -0.010504777
000180 ed 10 23 bd 50 e9 07 3d c3 06 27 be 70 45 d6 3d
       -0.039811064 0.03318149 -0.16311173 0.10462463
000190 42 58 9b bd df 13 e7 bd 2c 87 67 bd 55 22 37 3d
       -0.07585193 -0.11283087 -0.056525394 0.044710476
0001a0 d7 12 fd bd 00 ff 8b bd 50 08 99 3c 88 ef 9a bd
       -0.12357109 -0.06835747 0.018680722 -0.07565218
0001b0 61 a4 85 3b ca ee 26 3e a1 e6 93 bd 6f a1 fd bd
       0.0040784334 0.16302028 -0.07221723 -0.12384307
0001c0 ed c4 90 bc 17 07 5b 3d 31 12 6c 3c be 6e d1 3c
       -0.017672027 0.05347356 0.014408634 0.025565501
0001d0 d2 e8 c7 3c f8 d4 89 bc 81 82 81 bd e6 dc c3 3d
       0.02440301 -0.016825184 -0.0632372 0.095636174
0001e0 02 cd a8 3c c0 1c b8 3d e6 61 f7 bd b9 80 5e bb
       0.020605568 0.089898586 -0.120792195 -0.0033951236
0001f0 2c fc 2d bc 4e cc 84 bd b1 bb e9 3c cd 2e cb 3c
       -0.0106192045 -0.064842805 0.028531881 0.02480259
000200 b4 37 2b 3d c2 6c a2 3d 9e ad 00 3e a1 a9 12 be
       0.04180117 0.079309 0.1256623 -0.14322521
000210 6b b8 37 bc c9 d6 15 be 44 1b 98 3d 8c 31 10 3d
       -0.011213402 -0.14632715 0.074270755 0.0352035
000220 74 e1 30 bc 3a d8 97 bd ab 76 49 3d 2d 29 ae 3d
       -0.01079594 -0.07414289 0.049185436 0.085039474
000230 4a 92 2c 3d 2f a4 c7 bd b4 d1 28 bd 82 62 76 3d
       0.0421317 -0.097481124 -0.041215613 0.060152538
000240 7f 10 16 3b db 17 4d 3d 4c e7 0a be 38 02 f6 bc
       0.0022898016 0.05007158 -0.13564795 -0.030030355
000250 0e c2 1f bc 51 16 2d 3e 1f 79 84 3d fc 27 bd 3d
       -0.009750856 0.16903044 0.064684145 0.09236142
000260 c9 ae aa bc d9 8d 5d be 8b b5 13 be a1 73 fb 3d
       -0.020835297 -0.21636142 -0.14424722 0.12277914
000270 8a f0 be 3d df 96 87 bd 69 08 7c 3d 35 09 d2 bd
       0.09323223 -0.06620573 0.061531458 -0.10255662
000280 38 c8 36 bd ad fd a4 bd a8 62 c8 bd 40 39 9d 3d
       -0.044624537 -0.08056197 -0.09784442 0.07676935
000290 5c 80 94 bd e5 77 8d 3d 0b ff ac bc 1d 0d 49 3d
       -0.07251045 0.06907634 -0.021117708 0.04908477
0002a0 d1 8f 34 bd 32 15 04 3c dd df 8c bc 4d b3 cf 3c
       -0.044082467 0.008061694 -0.01719659 0.025354052
0002b0 d3 51 a0 bd 44 5b cc 3d 17 22 bf bc 12 0b d7 3c
       -0.07828107 0.09978345 -0.023331685 0.026250396
0002c0 26 91 9d 3d 52 2e 37 3d f3 b7 a6 bc f5 c0 1a 3c
       0.076937005 0.04472191 -0.020351386 0.009445419
0002d0 da 4a f3 bc 1c d1 b5 3d e7 9c 9e 3d 2e 38 27 3e
       -0.029698778 0.08877775 0.077447705 0.16330025
0002e0 03 ac ab 3c d9 22 88 3c d5 bf 27 bd 3d 5c fe bc
       0.020956045 0.01661818 -0.04095443 -0.031049842
0002f0 5f 70 bb 3d e4 21 4f 3d 01 d9 fe bd 65 27 48 bb
       0.091522925 0.05056943 -0.12443734 -0.003054106
000300 a5 8a fc 3c 5c 48 f7 bc 5d 2c 04 bd 20 b0 73 bd
       0.03082783 -0.03018587 -0.03226887 -0.059494138
000310 4a 14 98 bd 6e ce 85 3d a6 59 ca 3c 11 ed c3 bd
       -0.07425745 0.06533514 0.02470095 -0.09566701
000320 e6 b4 b3 bd b0 d3 f8 3c 11 86 71 3b 09 c8 a8 3d
       -0.08774738 0.030374378 0.0036853591 0.08241279
000330 91 17 b3 3d fe 4b b1 3d b3 28 a8 bc cc f4 49 3d
       0.08744729 0.086570725 -0.02052722 0.049305722
000340 b1 9d e6 3c 59 29 44 bc 67 c9 03 3e 5e 27 db bd
       0.028151365 -0.011972749 0.12869798 -0.10700868
000350 5f ec 9c bd cc 38 4d bd 26 1f 8a bd ca 43 e1 3d
       -0.07662272 -0.050102994 -0.06744222 0.10999258
000360 78 c2 48 bc 85 b6 25 be 51 c4 f7 3b 56 f8 3d bc
       -0.012253396 -0.16182907 0.0075612445 -0.011594852
000370 4e 6a 67 bc a8 26 82 3d 5b f2 db bd 6c fc 56 3d
       -0.014124466 0.06355029 -0.10739585 0.052486822
000380 d5 82 a7 bd 11 e8 b6 3d ca f8 9c 3d ae 60 d7 3c
       -0.08179251 0.08930982 0.0766464 0.026291218
000390 b0 b8 8b bd 1c 9b a4 3c fd f2 05 be cf 76 ad 3c
       -0.06822336 0.020093493 -0.13080974 0.021174816
0003a0 08 fc 4c be 41 40 a9 bd dc ba 82 3d e2 63 5e 3c
       -0.20018017 -0.082642086 0.06383297 0.013573619
0003b0 82 13 94 3d 99 d1 26 3e be e6 0c bd a6 c1 d1 bd
       0.07230283 0.16290893 -0.03439974 -0.10242014
0003c0 f1 13 5c bc ff d5 19 bd 60 93 d0 bc 67 a7 80 bd
       -0.013432489 -0.0375576 -0.025460899 -0.062819295
0003d0 8d fc 39 3c ff 34 6b be 48 db 10 bc 92 25 b5 3c
       0.011351717 -0.22969435 -0.008841343 0.022112641
0003e0 3a e8 9a bd 7f b5 26 3d 19 1d ab bc 57 61 16 3d
       -0.07563825 0.040700432 -0.020887898 0.036713924
0003f0 ff be b8 3d 57 a5 35 be 5c 0c 34 3d bf cc 1a be
       0.090208046 -0.17738853 0.0439571 -0.15117167

block2.0.bias f4 [128]
000000 db 2f d9 3d 1f 79 9a bb d6 2c 49 3d a4 1d 89 3b
       0.10604831 -0.004714146 0.049115025 0.0041844416
000010 bc ce ce 3c a1 07 02 bd fd 8c 90 3d f4 56 58 3c
       0.025245063 -0.031745557 0.070581414 0.013204325
000020 11 71 4c 3c 0e 94 7e bd d2 c2 58 bc 12 a0 ae bd
       0.012478129 -0.062152915 -0.0132300425 -0.08526625
000030 b7 42 b2 3b ce be 92 3d 91 20 55 bb 3c 40 fe 3c
       0.005440082 0.07165299 -0.0032520632 0.031036489
000040 38 75 ca 3d b4 17 6f 3d 94 82 50 3c 02 d4 09 3d
       0.09885639 0.058372214 0.012726445 0.033649452
000050 f2 3a 07 3d a5 98 99 3c e5 ca 98 bc 93 5f 05 3d
       0.0330152 0.018749544 -0.018651435 0.03256185
000060 f1 15 c3 3d f3 70 2d bd cb 70 18 3c 64 9b f3 39
       0.09525669 -0.042344045 0.009304236 0.00046464347
000070 17 a1 05 bd 9c 45 ad bc 23 18 da 3d 07 41 99 3d
       -0.03262433 -0.021151356 0.10649135 0.07483106
000080 d9 49 26 3d 3e 41 03 bd 1c f7 b0 3d 61 ec ab bb
       0.04059777 -0.03204464 0.086408824 -0.0052466844
000090 04 16 e3 3c ef 09 42 bc 80 bb c8 3d da 26 7c bc
       0.027720459 -0.011843189 0.09801388 -0.015390122
0000a0 41 6e 85 ba c5 69 6b bd b7 6d bc bd 4a d4 44 3d
       -0.0010179953 -0.057473917 -0.09200614 0.048054017
0000b0 f1 2e 13 3d 0a d7 51 3d 7c 1b ff 3c 88 40 be bb
       0.03593344 0.051230468 0.031141035 -0.0058060326
0000c0 11 30 20 3d 3b 56 b2 3d da aa 92 bd 26 2c 55 3d
       0.03910834 0.087078534 -0.071614936 0.052044056
0000d0 ea 68 b2 3d c5 f7 1f bd 4f e5 a7 bd 8c 3b a2 3d
       0.08711417 -0.03905465 -0.08198034 0.07921514
0000e0 3e 03 81 bd a3 37 55 bc c9 d0 ba bd 56 79 a4 bd
       -0.062994465 -0.013013753 -0.09121854 -0.080309555
0000f0 bc 7e 70 3d a7 3e a0 bc 0c 40 26 bd 73 63 5a bd
       0.058714613 -0.019561125 -0.040588424 -0.0533175
000100 15 f9 2b 3c 8a c1 8b 3c 82 e2 4d bd 16 af c6 3c
       0.0104963975 0.01706006 -0.050264843 0.02425341
000110 d3 fa 87 3d a2 ea 52 3d 8c 82 90 3d ff a3 76 3d
       0.06639638 0.051493295 0.0705615 0.060214993
000120 08 0b 92 3d f3 1c 94 3c 66 cb 70 bc 4b 1e 78 bc
       0.0713101 0.01808021 -0.0146969315 -0.015143941
000130 8f da 80 3d 8c 01 d1 3c 34 64 b0 bc 64 a2 ce 3c
       0.06291687 0.025513433 -0.021532156 0.025223918
000140 82 9f 9a bd d6 15 58 3d ba a9 de bc 2c 82 b9 3d
       -0.07549955 0.0527552 -0.027180541 0.090580314
000150 1f 17 92 bc 73 f1 b7 3d 05 f9 91 bd a5 53 60 bd
       -0.01783329 0.089816 -0.07127575 -0.05476727
000160 2f 0b 4d 3c 67 14 22 bd 25 6e e2 bc 59 d8 e0 bc
       0.012514873 -0.03957024 -0.027640412 -0.027446913
000170 74 df 51 bd 2a f3 cb 3d 3d 6c 56 bb 54 83 6c 3d
       -0.051238492 0.09958489 -0.0032718324 0.05774243
000180 cf 6e a2 bd 6d 1f 87 bd 8d 4e e6 bb be f7 ab bc
       -0.07931291 -0.06597791 -0.007028407 -0.020992156
000190 5a ea 0f 3d 1e ba d4 bb df 1b 88 bd 18 ad b4 37
       0.035135604 -0.0064919135 -0.06645941 2.1538275e-05
0001a0 ee a9 43 3d 87 62 5f bd ea c8 90 3c 56 13 06 3d
       0.04776948 -0.054537322 0.017673928 0.032733284
0001b0 1e 27 ae 3d 91 1c 56 3d 84 39 33 3d 4a 19 97 3d
       0.08503555 0.052273337 0.043756023 0.073778704
0001c0 6b 49 7b bd cb ff 24 bd 52 f2 82 3d 0c aa 27 3d
       -0.061349314 -0.040283006 0.06393875 0.040933654
0001d0 b4 78 49 bd 14 e9 a5 bc c1 5f 87 3d 4b 9b 0d 3e
       -0.049187377 -0.020252742 0.066100605 0.13828771
0001e0 79 52 77 bd be 33 1b 3c 2a 43 f0 3c 4a 36 73 bd
       -0.060381386 0.0094727855 0.029328901 -0.059377946
0001f0 df 8a 68 3d 2c c8 23 3d e1 41 3b 3d 6d 6e e7 3d
       0.056773063 0.03998582 0.045717124 0.11300359

block2.1.weight f4 [128]
000000 5a cc 7c 3f 6e 31 83 3f ef bb 7c 3f f2 e4 78 3f
       0.98749316 1.024946 0.98724264 0.9722434
000010 d6 bb 7e 3f ef df 72 3f 45 19 7f 3f fc 19 83 3f
       0.99505365 0.94872946 0.99647933 1.0242305
000020 8c 14 83 3f f7 3e 85 3f 8d ab 82 3f d9 d2 82 3f
       1.0240645 1.040984 1.0208603 1.0220596
000030 44 55 81 3f da da 83 3f 2a 82 79 3f 74 88 69 3f
       1.0104146 1.0301163 0.9746424 0.91223836
000040 6d 75 72 3f 51 dd 7b 3f a5 87 77 3f 1b 5a 7f 3f
       0.9471043 0.9838458 0.9669135 0.99746865
000050 a1 0e 81 3f 8a 78 84 3f 33 6e 80 3f c8 c6 85 3f
       1.0082589 1.0349286 1.003363 1.0451288
000060 8f 6c 80 3f 31 e0 80 3f ac 3d 81 3f fa 00 83 3f
       1.003313 1.0068418 1.0096946 1.0234673
000070 94 5a 81 3f 8c 57 82 3f e9 80 6f 3f e9 32 71 3f
       1.0105767 1.0182967 0.93556076 0.9421831
000080 f8 c2 81 3f 4f 0c 72 3f e0 8c 7e 3f ce e2 84 3f
       1.0137625 0.9455003 0.9943371 1.0381715
000090 67 6f 72 3f 2e 93 7e 3f 69 14 7a 3f b0 05 7c 3f
       0.94701236 0.9944333 0.97687393 0.9844618
0000a0 d1 2c 7d 3f 65 1a 87 3f 89 08 79 3f 13 c8 81 3f
       0.9889651 1.055493 0.9727865 1.0139183
0000b0 eb e6 7d 3f e0 c6 83 3f 92 d7 72 3f ab d7 78 3f
       0.9918048 1.0295067 0.94860184 0.97204083
0000c0 a0 eb 79 3f f6 13 7f 3f 49 61 83 3f a1 58 77 3f
       0.9762516 0.9963983 1.0264064 0.9661961
0000d0 39 46 7a 3f 6d 37 79 3f e1 dc 78 3f 06 81 7c 3f
       0.977634 0.973502 0.97212034 0.98634374
0000e0 ec 1f 7b 3f 86 d8 75 3f 14 6d 82 3f 55 bd 76 3f
       0.98095584 0.96033514 1.0189538 0.9638265
0000f0 f2 46 80 3f e1 18 80 3f 84 4b 82 3f 92 70 74 3f
       1.0021651 1.0007592 1.0179296 0.9548427
000100 5f a2 7e 3f fa 10 80 3f 0f 37 79 3f f0 6e 7f 3f
       0.9946651 1.0005181 0.9734964 0.9977865
000110 42 7c 81 3f 68 31 78 3f f5 a5 80 3f 2d d9 7a 3f
       1.0116045 0.9695039 1.0050646 0.97987634
000120 c3 72 81 3f 6a 0d 80 3f 8c 13 80 3f 4a ad 77 3f
       1.0113147 1.0004094 1.0005965 0.96748793
000130 ad 53 71 3f 19 f7 7d 3f d9 19 7b 3f 3e 99 81 3f
       0.94268304 0.99205166 0.98086315 1.0124891
000140 9f 21 7e 3f b2 82 80 3f 56 5c 6f 3f 9b eb 7c 3f
       0.9927005 1.0039885 0.9350027 0.98797005
000150 32 d3 84 3f 25 db 75 3f 0c a0 81 3f 94 4b 82 3f
       1.0376952 0.96037513 1.0126967 1.0179315
000160 03 81 82 3f ea f4 75 3f a0 13 80 3f e6 55 7d 3f
       1.0195621 0.96076834 1.0005989 0.98959196
000170 26 3b 7b 3f 17 00 7a 3f f3 11 7d 3f 5f 6f 7d 3f
       0.9813713 0.9765639 0.98855513 0.98998064
000180 81 ff 80 3f 7c 35 7f 3f 59 5c 82 3f e3 35 7c 3f
       1.0077974 0.99690986 1.0184432 0.98519725
000190 57 71 7a 3f 99 84 75 3f cc 1c 78 3f 8d 9b 82 3f
       0.9782919 0.9590545 0.9691894 1.020372
0001a0 4c 33 75 3f 3d f7 7c 3f 1f c0 77 3f aa 0e 81 3f
       0.957814 0.98814756 0.9677753 1.00826
0001b0 60 eb 73 3f 19 15 7b 3f 12 2d 7a 3f c3 5c 76 3f
       0.9528103 0.9807907 0.9772502 0.96235293
0001c0 9d 29 77 3f d7 2b 72 3f af 0d 82 3f 14 bf 7f 3f
       0.9654787 0.94598144 1.0160426 0.9990094
0001d0 88 a5 77 3f c9 fc 83 3f a3 eb 7f 3f 29 91 7e 3f
       0.96736956 1.0311519 0.9996893 0.99440247
0001e0 53 43 7e 3f c5 a7 83 3f 48 53 7a 3f 61 bd 75 3f
       0.9932148 1.0285574 0.9778333 0.95992094
0001f0 49 98 86 3f 89 05 7a 3f b3 8a 7c 3f a0 08 7e 3f
       1.0515224 0.97664696 0.9864914 0.9923191

block2.1.bias f4 [128]
000000 89 02 33 be 0f da 77 be 2e 8e 38 bb 69 2a 29 be
       -0.17481436 -0.24204277 -0.0028160918 -0.16520084
000010 d3 a8 74 be 78 86 2f be 70 e0 90 be 24 20 5a be
       -0.23892526 -0.1714114 -0.28296232 -0.21301323
000020 8e 23 43 be 7e 14 06 be c0 94 34 be b8 5e 2b be
       -0.19056532 -0.13093755 -0.17634869 -0.16735351
000030 ae 9d 4b be 1e 50 30 be 69 49 39 be ab fa 91 bd
       -0.19884369 -0.17218062 -0.1809441 -0.07127889
000040 89 b0 31 bd f2 e7 4f be a5 b2 1c be 73 95 fe bd
       -0.043381248 -0.20303324 -0.15302522 -0.12430849
000050 ba 15 10 be 96 df 62 be f0 60 00 be fb f2 46 be
       -0.14070788 -0.22155604 -0.12536979 -0.19428627
000060 e7 af 6a be 95 8a 62 be 11 c8 89 be 5e 77 7f be
       -0.22918664 -0.22123177 -0.2691045 -0.24947879
000070 e9 2f f7 bd cb c9 38 be c4 b6 85 bc 38 c4 9a 3c
       -0.12069685 -0.18045728 -0.016322501 0.018892393
000080 e0 22 db bd a3 89 b6 bd 57 3f 50 be 71 60 48 bd
       -0.10700011 -0.08912971 -0.20336662 -0.0489201
000090 7c 03 65 be 8e 62 87 be 1f 01 63 be a1 0a 21 be
       -0.2236461 -0.2644238 -0.22168396 -0.15726711
0000a0 4a f5 58 be c7 88 6b be 54 59 05 be e1 5f 19 be
       -0.2118732 -0.23001395 -0.13022357 -0.14977981
0000b0 89 4e 87 be 8c 40 36 be 81 36 86 bd 1c f7 90 bd
       -0.26427105 -0.1779806 -0.065533645 -0.070783824
0000c0 d5 07 2e be 8b 54 43 be 0d 70 72 be 66 62 2d be
       -0.16995175 -0.1907522 -0.23675556 -0.16932067
0000d0 b5 92 bf bd 09 08 2f bd b7 5c c3 bd 66 bd 4c be
       -0.09354154 -0.042732272 -0.09539168 -0.19994125
0000e0 96 2a 9a bd a5 18 de bd 8b c6 34 be d9 08 82 be
       -0.07527654 -0.10844544 -0.17653863 -0.25397375
0000f0 d0 f3 41 be 5b 74 2e be fe 1a 36 be 18 df 44 be
       -0.18940663 -0.17036574 -0.17783734 -0.19225729
000100 6d 65 67 be 99 79 6e be f5 95 24 be b1 d1 c0 bd
       -0.22597285 -0.23288573 -0.16072829 -0.094149955
000110 d0 51 51 bd 59 ce 98 be 75 7e 17 be 3b ac fd bd
       -0.051103413 -0.2984493 -0.14794333 -0.12386366
000120 7e fa 54 be 2f 78 84 be cb 94 87 be 8a 0d 31 be
       -0.2079868 -0.25872943 -0.26480708 -0.17290321
000130 59 a2 2f be b9 e9 17 be 8e 94 7b be 7f 34 1e be
       -0.17151774 -0.14835252 -0.24568388 -0.15449713
000140 ae 79 07 bc 75 71 56 be 8f 3e c0 bd ad f4 22 be
       -0.008268757 -0.20941718 -0.09386932 -0.15913649
000150 4a bd e8 bd 9f 9a 1a be fa b9 2a be 2b 24 36 be
       -0.11364229 -0.15098046 -0.16672507 -0.17787234
000160 7d a3 e4 3c e8 15 cb bd fc 51 47 be 4e 8d aa bd
       0.027909989 -0.09916288 -0.19464868 -0.08327733
000170 e6 c9 0b be 20 73 56 3b 6d 97 83 bd 83 2d 22 be
       -0.13651237 0.0032722428 -0.064253666 -0.15837674
000180 ac 26 00 be 0f 81 7e be 58 92 2d be 1e 76 9c be
       -0.12514752 -0.2485392 -0.16950357 -0.30558866
000190 b1 9a 78 be 3a c6 b7 bd 1d d8 42 be ba c5 2c be
       -0.2427776 -0.089733556 -0.19027753 -0.16872302
0001a0 55 32 0a be cc 27 ba be fb bf 83 be 1d 48 29 be
       -0.13495763 -0.36358488 -0.25732407 -0.16531415
0001b0 fc cd 94 be a6 89 22 be fb 9a 89 be 18 1b 61 bd
       -0.29063404 -0.15872821 -0.26876053 -0.05495748
0001c0 ce 0a 36 be 74 3c 1c bd 5e 38 55 bd bc 5f 18 be
       -0.17777559 -0.03814359 -0.05205571 -0.1488027
0001d0 86 33 a9 bd ec be 0a be 4e aa 78 be 8a 45 22 be
       -0.082617804 -0.13549393 -0.24283716 -0.1584684
0001e0 02 69 28 be ec 6d 6c be 26 0d 6d be c4 65 d2 bd
       -0.16446307 -0.23088807 -0.23149547 -0.102733165
0001f0 50 16 54 be c0 03 59 be 84 2c 31 be be 1c 35 be
       -0.20711637 -0.21192837 -0.17302138 -0.17686746

block2.1.running_mean f4 [128]
000000 6d 20 c7 be db 30 80 be 96 c8 9f bd bb b8 84 bf
       -0.38891926 -0.25037274 -0.078019306 -1.0368875
000010 01 23 6f bf 10 bc 52 bf e7 ae 8b bf 6e 7e c8 be
       -0.93412787 -0.8231821 -1.0912751 -0.39158958
000020 cd d8 0d bf a6 09 57 bf cc e5 9e be dd c7 db be
       -0.55408937 -0.839991 -0.31034696 -0.4292592
000030 d9 5b ea be 36 18 58 bf 8d bf 49 bf 0c 95 02 3e
       -0.457732 -0.8441194 -0.7880791 0.1275217
000040 c6 5c 08 3f 0e b8 27 bf 27 fd 6f be e9 5c a8 be
       0.5326656 -0.6551522 -0.23436414 -0.32883385
000050 5c 5f 0a bf 87 15 98 be 23 df 47 bf 70 c1 68 be
       -0.54051757 -0.29703924 -0.78074855 -0.2273004
000060 5c 7f a1 bf 85 fe 94 bf 0a 56 2f bf d8 21 bd bf
       -1.2616992 -1.1640173 -0.6849066 -1.4775953
000070 68 31 c7 be 7b 80 dd 3d ea 14 cc 3d c4 36 10 3e
       -0.3890488 0.10815521 0.099649265 0.14083391
000080 ad 52 16 bf 66 30 21 bf 81 fc d4 3d 8f dd dc 3c
       -0.58719903 -0.62964475 0.10399724 0.026961116
000090 1a ae 66 bf 4c 77 4a bf 2a e0 ec 3d da 14 c7 be
       -0.9010941 -0.7908828 0.115661934 -0.38883096
0000a0 09 46 70 bf 46 cc 3c bf 70 ca e1 be 97 4e 94 bd
       -0.93856865 -0.73749197 -0.4409976 -0.07241552
0000b0 f8 41 08 bf 64 f5 23 bf ce e3 49 be 76 c2 56 3c
       -0.5322566 -0.6404631 -0.19715807 0.013107887
0000c0 77 49 b3 be 17 c7 a8 3e a1 23 c8 be 5b 73 f9 be
       -0.35016987 0.32964393 -0.39089683 -0.48720822
0000d0 68 6f 46 3e d7 bb 21 bf 6a a0 58 be 82 f4 b5 be
       0.19378436 -0.63177246 -0.21154943 -0.35538107
0000e0 0f 6d 9a 3e 1b 7a 73 bf 1f 76 ea bb b0 12 83 bf
       0.3016133 -0.95108193 -0.0071551944 -1.0240078
0000f0 76 89 d4 be 89 11 3a be b0 d8 39 bf eb 52 32 bf
       -0.41511124 -0.18170752 -0.72596264 -0.6965777
000100 4f c9 0a bf 37 30 0d bf fc 16 85 3e 8e 2c 44 bf
       -0.5421342 -0.55151695 0.25994098 -0.76630485
000110 39 fa 07 3d a8 60 30 bf 9d 45 06 3f 86 7f f3 bd
       0.033197615 -0.68897486 0.5244997 -0.118895575
000120 a0 c6 63 bf fb 27 41 bf 79 99 80 bf 0e dc e3 bd
       -0.8897495 -0.7545163 -1.0046836 -0.111259565
000130 85 c1 c4 be e6 45 96 3d c5 be ed be cc 19 e1 be
       -0.38428894 0.07337551 -0.46434608 -0.43964994
000140 61 4a 74 3e 86 e3 18 bf 62 50 4f be f3 e4 39 bf
       0.23856498 -0.59722173 -0.20245507 -0.72614974
000150 0c cc e2 be e1 0d 0e be 4e ed 5f bf 86 c5 19 bf
       -0.442963 -0.13872482 -0.87471473 -0.6006702
000160 a7 9e 2b be 26 cc 2e bf c3 60 3e bf ea cc de be
       -0.1675974 -0.68280256 -0.74366397 -0.43515712
000170 8b 5d f4 be b3 a0 19 bc 03 16 ad be 3e 1f 1a 3e
       -0.47727618 -0.009376693 -0.33805856 0.1505098
000180 40 0f 09 bf 29 34 67 bf d8 4f 06 3d d7 51 4e bd
       -0.53538895 -0.90313965 0.03279099 -0.050371017
000190 c3 7f 6a bf 5e a8 1a bf c7 71 25 bf 3a 42 16 bf
       -0.916012 -0.6041316 -0.64626735 -0.58694804
0001a0 c4 db 37 be 57 97 8b bf 06 9a 6e be 9e 1a 98 bd
       -0.17954928 -1.090556 -0.23300943 -0.07426952
0001b0 1f f1 55 bf bb cb 7b be fc 36 b4 be 55 74 a5 be
       -0.83571047 -0.24589436 -0.351982 -0.32315317
0001c0 03 e2 0b bf 77 4e 52 3e 3d 0e 87 be 80 87 61 bf
       -0.5464174 0.20537744 -0.2637805 -0.8809738
0001d0 b4 b6 16 be a6 59 47 bf a4 cc 6e bf f6 c6 c7 be
       -0.14718133 -0.7787117 -0.93281007 -0.39018983
0001e0 85 93 00 bf 0e 87 4e be ce 57 18 bf 14 47 92 be
       -0.50225097 -0.20168707 -0.5950898 -0.28569853
0001f0 1b f0 86 bf 11 03 8e bf 59 3e 30 bd 3a 42 27 bf
       -1.0542024 -1.1094686 -0.04302821 -0.6533543

block2.1.running_var f4 [128]
000000 56 7c 9a 3f 66 e5 8b 3f d5 7e 83 3f ba 58 c5 3f
       1.2069194 1.0929382 1.0273081 1.5417702
000010 39 ad 9c 3f 8a 4c 90 3f c6 68 c3 3f 1c c6 95 3f
       1.2240363 1.1273358 1.5266349 1.1701083
000020 3b 16 a1 3f 26 b9 9c 3f 5a 0d 94 3f 07 6b 9a 3f
       1.2584909 1.2244003 1.1566575 1.2063912
000030 a6 d3 a0 3f 62 60 a5 3f 9e 6c a7 3f 9c 5b a3 3f
       1.256459 1.2920039 1.3080022 1.2762332
000040 a7 cd 92 3f f2 da a2 3f 20 dd 8f 3f 73 38 b9 3f
       1.146901 1.2723067 1.1239357 1.4470352
000050 14 b2 b0 3f 2a 4b 99 3f 8e 9f c1 3f 50 c1 91 3f
       1.3804345 1.1976063 1.5126817 1.1387119
000060 f4 02 b5 3f c3 cd ac 3f 0f 31 a4 3f 80 c4 b2 3f
       1.4141526 1.3500293 1.2827471 1.3966217
000070 87 d4 9b 3f 0e 06 a4 3f 56 b3 88 3f bc d4 af 3f
       1.2174233 1.2814348 1.0679729 1.3736796
000080 60 fd b0 3f c2 1e ae 3f ef 45 96 3f 55 37 a0 3f
       1.3827324 1.3603137 1.1740092 1.2516886
000090 1f ef a2 3f 05 5e a9 3f 1c 1f 90 3f f2 b4 a6 3f
       1.2729224 1.3231817 1.1259494 1.302397
0000a0 23 57 b2 3f f4 9f ab 3f 2f 09 a3 3f 91 e1 93 3f
       1.3932842 1.3408189 1.2737178 1.1553212
0000b0 b1 24 b0 3f f3 14 a1 3f 3c 8e a1 3f 23 de ac 3f
       1.3761197 1.2584518 1.2621531 1.3505291
0000c0 e3 70 a6 3f df 06 9c 3f c2 ac 9a 3f ce c6 a3 3f
       1.30032 1.2189597 1.2083972 1.2795045
0000d0 9f e6 8b 3f fa e7 b4 3f 96 25 a3 3f cf 4e a6 3f
       1.0929755 1.4133294 1.2745845 1.29928
0000e0 dd 44 af 3f 0b ce b7 3f de 7c 98 3f 1c fa af 3f
       1.369289 1.4359754 1.1913106 1.3748202
0000f0 f8 b5 b0 3f ba f2 89 3f 0b 83 a8 3f 06 d6 ad 3f
       1.3805532 1.0777199 1.3164991 1.358094
000100 40 7a a7 3f 58 03 a1 3f 5b 9e 9d 3f 4d 00 95 3f
       1.3084183 1.2579145 1.2313951 1.1640717
000110 51 8a a4 3f d3 9a b1 3f d5 6e ad 3f ad 0e a5 3f
       1.2854711 1.3875374 1.3549448 1.2895104
000120 96 04 c0 3f fb 37 a2 3f 3c b3 a9 3f 27 fb 8b 3f
       1.50014 1.2673334 1.3257823 1.0936021
000130 5f a1 92 3f 2b 95 9a 3f 51 e6 9a 3f 6e bb c3 3f
       1.1455497 1.2076772 1.2101537 1.5291574
000140 41 30 95 3f ef 5a a1 3f a5 11 9f 3f d2 ae ae 3f
       1.1655351 1.2605876 1.242726 1.3647101
000150 9e ec aa 3f 0a b1 a4 3f 0c e3 c3 3f d5 08 b6 3f
       1.335346 1.2866528 1.5303664 1.4221445
000160 7d 02 b4 3f 84 93 9c 3f 1f 44 ad 3f 2e 1c b9 3f
       1.4063259 1.2232518 1.3536414 1.4461725
000170 59 3e a5 3f 52 74 aa 3f 9f d7 99 3f ef 67 9a 3f
       1.2909652 1.3316748 1.2018927 1.2062968
000180 2a 21 c2 3f 53 27 aa 3f b5 07 99 3f 10 5e 9c 3f
       1.5166371 1.3293251 1.1955477 1.2216206
000190 10 5f 94 3f 4c 88 b0 3f de e3 8d 3f b6 5b c4 3f
       1.1591511 1.3791595 1.1085165 1.5340488
0001a0 c5 10 a4 3f 67 f2 98 3f 75 78 a6 3f ad ac a5 3f
       1.2817618 1.1948975 1.300551 1.2943321
0001b0 1a 62 b9 3f eb 2a 9d 3f 88 e8 99 3f 23 3f a6 3f
       1.4483063 1.2278723 1.2024088 1.2988018
0001c0 b9 5b b6 3f de dc a1 3f 3e 3d bb 3f c0 ae cd 3f
       1.4246742 1.2645528 1.4628065 1.6068954
0001d0 85 9f ba 3f f4 89 d1 3f a2 c0 a7 3f 0b 6b ae 3f
       1.4579931 1.6370225 1.3105662 1.3626417
0001e0 54 c2 ad 3f 4b 01 b0 3f d0 9e 9a 3f 6d a7 a9 3f
       1.3574929 1.3750395 1.2079716 1.3254219
0001f0 18 0a ac 3f ca a7 8d 3f 7b e8 a6 3f 0a d2 bc 3f
       1.344058 1.106683 1.3039697 1.4751599
